…
a_true = evaluate_model(\n    cma_model, val_dl, \"Cross-Modal Attention Validation\"\n)","metadata":{"trusted":true,"execution":{"iopub.status.busy":"2026-06-21T21:13:29.495665Z","iopub.execute_input":"2026-06-21T21:13:29.496302Z","iopub.status.idle":"2026-06-21T21:26:57.869001Z","shell.execute_reply.started":"2026-06-21T21:13:29.496272Z","shell.execute_reply":"2026-06-21T21:26:57.868002Z"}},"outputs":[{"name":"stdout","text":"MODEL 5: CROSS-MODAL ATTENTION\nParameters: 275,649\n\nArchitecture:\nCrossModalAttentionModel(\n  (atm_encoder): AtmosphericEncoder(\n    (conv): Sequential(\n      (0): Conv1d(4, 64, kernel_size=(7,), stride=(1,), padding=(3,))\n      (1): ReLU()\n      (2): BatchNorm1d(64, eps=1e-05, momentum=0.1, affine=True, track_running_stats=True)\n      (3): Conv1d(64, 128, kernel_size=(5,), stride=(1,), padding=(2,))\n      (4): ReLU()\n      (5): BatchNorm1d(128, eps=1e-05, momentum=0.1, affine=True, track_running_stats=True)\n      (6): Conv1d(128, 128, kernel_size=(3,), stride=(1,), padding=(1,))\n      (7): ReLU()\n      (8): AdaptiveAvgPool1d(output_size=1)\n    )\n    (norm): LayerNorm((128,), eps=1e-05, elementwise_affine=True)\n  )\n  (surf_encoder): SurfaceEncoder(\n    (net): Sequential(\n      (0): Linear(in_features=5, out_features=64, bias=True)\n      (1): ReLU()\n      (2): Dropout(p=0.2, inplace=False)\n      (3): Linear(in_features=64, out_features=128, bias=True)\n      (4): LayerNorm((128,), eps=1e-05, elementwise_affine=True)\n    )\n  )\n  (cross_attn): CrossModalAttention(\n    (attn_surf_to_atm): MultiheadAttention(\n      (out_proj): NonDynamicallyQuantizableLinear(in_features=128, out_features=128, bias=True)\n    )\n    (attn_atm_to_surf): MultiheadAttention(\n      (out_proj): NonDynamicallyQuantizableLinear(in_features=128, out_features=128, bias=True)\n    )\n    (norm_surf): LayerNorm((128,), eps=1e-05, elementwise_affine=True)\n    (norm_atm): LayerNorm((128,), eps=1e-05, elementwise_affine=True)\n  )\n  (head): PredictionHead(\n    (net): Sequential(\n      (0): Linear(in_features=256, out_features=128, bias=True)\n      (1): ReLU()\n      (2): Dropout(p=0.3, inplace=False)\n      (3): Linear(in_features=128, out_features=64, bias=True)\n      (4): ReLU()\n      (5): Linear(in_features=64, out_features=1, bias=True)\n    )\n  )\n)\n Epoch | Train Loss |  Val Loss |  Val F1 |  Val AUC\n\n\n     1 |     0.3146 |    0.3323 |  0.8073 |   0.8340\n     5 |     0.2624 |    0.3294 |  0.7920 |   0.8365\n    10 |     0.2344 |    0.3345 |  0.7945 |   0.8329\n    15 |     0.2132 |    0.3463 |  0.7797 |   0.8306\n    20 |     0.2030 |    0.3548 |  0.7734 |   0.8285\n\nBest Val F1
…
